data.pth (torch, 5847 bytes, 6 tensors)

l1.weight f4 [8, 55]
00000000: f001 f3bd ae53 b33e 40c3 5f3f 3a5c f5be
00000010: 7bb6 8bbe 2eaa 693e ff3f 1ebc 6a88 55bf
00000020: 3a95 d83e 7c11 443f 1d18 7fbf 91e6 8dbf
00000030: 9e2b 743e 9f5c 99bf d13f 53bf 211e 72be
00000040: f7a7 903f f7e9 a53f 3502 3f3f 4d66 1d3f
00000050: 2d56 113f 3ccd 96be e16b cd3e af94 93bb
00000060: ad99 ad3e bc07 49be c9b6 0e3f 5962 973d
00000070: eb33 613f 6b72 a03f 8361 6dbf 8c7a 33bf
00000080: 76c9 c7be 711b 333f 4d38 643f 820b 8a3e
00000090: 07f7 b43e 7ff3 fabf 3f19 273f 5bb4 7c3d
000000a0: 151e fb3e 8683 833e d104 543f b117 193f
000000b0: c464 5cbf 4fec 153f aae0 593e 3116 533e
000000c0: 70f6 d7be b861 963e 75fd f93e 7968 03bf
000000d0: db8e 9cbf 846e d83d 943c b33e 298b 8b3c
000000e0: 9116 803e 9516 a83f fe26 3dbe 4cc3 0c3e
000000f0: 1a98 513e 486c dfbf a1fe 2d3f 0e00 65be
00000100: 7a48 f53f 88d8 3fbf 63f8 a6be bb7c 833b
00000110: 9a23 b0bf 5836 a1be aa78 053f d5ce 98bf
00000120: 4f8d 6fbf 0adc 1b3b 5dc0 2e3e f42b ba3d
00000130: 5dc9 5f3f cbe8 ab3f de85 133d 9b31 823e
00000140: fc79 353f d8e8 be3e 44fb 523d 776a 313e
00000150: 1df9 5bbf eb38 c43f 44d7 50bd 5925 85be
00000160: 3892 343e 3a2a d73e 463a d13d 3a7d aabd
00000170: a8e9 ccbf ebad 9f3e 14cd 0b3e c496 a33d
00000180: 119d a93e 8500 c8bc db03 81bc a5bc d73d
00000190: c05f 2f3e 3f0c 583e 92f8 d03c f0b4 9abe
000001a0: b1c3 4c3e b824 0cbe d5a8 883e 6c56 113f
000001b0: e498 683d 13f8 27bc 31ad 893d ab8f efbd
000001c0: 2b09 a83d 64f0 a9bc b655 813d cec9 4dbd
000001d0: f82d d43c 9521 e8bd 3e66 18bd 409e 9f3d
000001e0: 579d 4c3c fe46 893d 5857 dbbc 4668 f8bd
000001f0: 6119 08be 88db 163d e484 a93d 8c43 6fbd
00000200: 1a37 bb3c 61a5 68bd 78c5 02be face 06be
00000210: 18a5 fabd 6ff1 fdbd 0799 d43d a49c 903d
00000220: 28d5 a73d f449 cdbd 90dc 133d af37 70bd
00000230: d023 0d3c f015 903d 8c2b 71bd e596 343d
00000240: b7cb 02be ae9c 483d f4b6 aabc 4c1b b7bd
00000250: 7207 5bbd f4c5 09be 10c9 b4bc b1e7 ddbd
00000260: 9349 fdbd 2e29 f73d c0c0 28bd 2d6a 33bd
00000270: 5ae9 9abd 00c1 f53b 00f2 c53c f181 143d
00000280: 403f ac3d a84a b3bd a0db d03d 0e13 46bc
00000290: 00f8 6fb9 0522 0d3e f0eb bc3e 1168 97bf
000002a0: dcc9 343f 0ea5 af3e 8f08 f63e 8a24 c23f
000002b0: cafd a53f 47cc 89bd 90a7 fe3e 6577 7b3d
000002c0: 6689 ae3e faa4 dcbd 4e24 e93f faa1 bebd
000002d0: 2003 c5bd c6b4 333f 80b2 253f a05b 94bd
000002e0: d37d 643e 2643 ed3d 9bd7 39bf d473 9bbf
000002f0: 0552 f63e 81d5 ff3d ddd9 733f e439 9d3e
00000300: 6afb db3d f2c3 8e3e f0d1 b13f af10 b4bd
00000310: a696 2c3f 6755 393f fc4e 063e f56e 8c3e
00000320: e598 03bd d9f4 d8bd 61cd 513f fb2d b23e
00000330: 9f27 07bd 6d29 4f3e b2ea a33e c065 29bf
00000340: 3aef 51be 887f 3d3f 5be8 803e 62ab 4e3e
00000350: 0f4b 8f3d ff4c 243f 5b5f 193e 46e0 66bd
00000360: 89db c83d 10cc 673f 1193 9f3e 36f2 943d
00000370: cc41 ddbd 34c7 273d 4e28 923f c4e4 afbf
00000380: 074c a0be d0b5 d03e adf3 b73f e840 353f
00000390: 6d03 8ebe 0ab2 6cbf 1641 1340 b7c2 1abf
000003a0: c221 c9bd 1d9f d1bd e579 cc3f 1d21 8dbe
000003b0: d4d4 2dbf c324 17bf 307a ae3e 91d4 d53e
000003c0: f5b9 f33e 01a0 62bf 140c 08bf 0cc0 dfbe
000003d0: 3c05 043e 6b90 b13f 6d29 f03e f4aa 2c3e
000003e0: 9659 fa3e 0f78 af3e a313 cbbe 69fd edbe
000003f0: 319e 8ebf 2e67 863e 9bcb 113f ae19 533e
-0.11865604 0.3502478 0.874073 -0.47921926 -0.2728766 0.22818825 -0.009658813 -0.83411276
0.4230135 0.7658918 -0.9964617 -1.1085988 0.23844764 -1.1981391 -0.8251925 -0.23644306
1.1301259 1.2962025 0.7461274 0.61484224 0.5677212 -0.29453456 0.40121368 -0.0045038084
0.33906308 -0.19631857 0.5574766 0.07391805 0.87969846 1.2534918 -0.92726916 -0.70108867
-0.3902089 0.6996375 0.8914841 0.26961905 0.35344717 -1.9605559 0.652729 0.061695438
0.49046388 0.25686282 0.8281985 0.59801775 -0.86091256 0.58563703 0.21277109 0.20613934
-0.42180204 0.29371428 0.48826185 -0.5133129 -1.2231096 0.10567954 0.35007155 0.01703413
0.25017217 1.3131891 -0.18471906 0.13746375 0.20468178 -1.745492 0.6796666 -0.22363302
1.9162743 -0.74939775 -0.3261138 0.0040126718 -1.3760865 -0.31486773 0.52137244 -1.193812
-0.93574995 0.0023782277 0.17065568 0.09090415 0.8741663 1.3430418 0.036016338 0.2542847
0.7088926 0.3728702 0.051509157 0.1732577 -0.8592699 1.532987 -0.050986543 -0.26005057
0.17633903 0.42024404 0.10216193 -0.08324666 -1.6008806 0.31187376 0.1365245 0.07987741
0.33127645 -0.02441431 -0.015748909 0.10534028 0.1712637 0.21098422 0.025509153 -0.3021617
0.19996525 -0.13685882 0.2669131 0.56772494 0.056786433 -0.010252017 0.06722487 -0.11697324
0.08204874 -0.02074451 0.06315176 -0.050241284 0.025900826 -0.1133453 -0.03720688 0.07793856
0.012488685 0.06702994 -0.026775047 -0.121292636 -0.13290931 0.036830455 0.082773 -0.058414027
0.022853423 -0.056798343 -0.12770641 -0.13164893 -0.122385204 -0.123995654 0.1038075 0.07061127
0.08194953 -0.10023871 0.036099017 -0.058646854 0.008614495 0.07035434 -0.05887942 0.044089217
-0.12773024 0.048977546 -0.020839192 -0.08940753 -0.053473897 -0.1345442 -0.02206853 -0.10835207
-0.12367549 0.12068401 -0.041199446 -0.04380243 -0.075640395 0.007499814 0.024163246 0.036256734
0.084105015 -0.08754474 0.1019814 -0.012089504 -0.00022885203 0.13782509 0.36898756 -1.1828634
0.7062051 0.34305614 0.48053405 1.5167401 1.2968075 -0.06728416 0.49737215 0.06139316
0.34089202 -0.10773654 1.8214204 -0.09308238 -0.09619737 0.70197713 0.64725494 -0.072440386
0.22313623 0.11585073 -0.7259461 -1.2144723 0.4810945 0.124918945 0.9525431 0.3070823
0.10741313 0.2788387 1.3892193 -0.08792245 0.6741737 0.7239594 0.13116068 0.27428403
-0.032128233 -0.10593576 0.8195401 0.34800705 -0.03299677 0.20230646 0.32014996 -0.66170883
-0.20501414 0.7402272 0.25177273 0.20182565 0.06996738 0.64179987 0.14977781 -0.056366228
0.09807498 0.9054575 0.3116689 0.072727606 -0.108035654 0.04096146 1.141855 -1.3741689
-0.31308004 0.40763712 1.4371239 0.70802164 -0.2773699 -0.92459166 2.3008475 -0.6045336
-0.09820892 -0.102354266 1.5974699 -0.27564326 -0.67902875 -0.5904047 0.34077597 0.41763738
0.4760281 -0.88525397 -0.5314343 -0.43701208 0.12892622 1.3872198 0.46906605 0.16862088
0.48896474 0.34271285 -0.3966342 -0.464824 -1.1142026 0.26250595 0.569513 0.20615265

l1.bias f4 [8]
00000000: 753a 803f 1a53 be3e 8d26 16bd 1f51 cd3e
00000010: 1996 383f 067b 0c3f 6c35 433d 0c8d 713f
1.001784 0.37172776 -0.03665786 0.40100953 0.7210403 0.5487522 0.04765837 0.94355845

l2.weight f4 [8, 8]
00000000: b589 943f 3db0 82bf 0b89 643d e427 c3be
00000010: aec6 19bf af70 a23f 52bf 283e 1f79 1b3f
00000020: 9a81 823e 5b27 d1bf 7e2d f4bd 948e 1340
00000030: 5933 adbe 8507 35be 934a 53be 94fc c33f
00000040: 19aa c3bc 907f 693f 2fc1 cf3d cfe4 303f
00000050: 3156 f4be 0cda 763f eeb6 313e 8453 bc3d
00000060: 803f f83f c356 983f 25f6 a0be cd26 78bf
00000070: 1ede d8be 8481 173f 7844 b3bd 815e 47be
00000080: 4547 45bf 6a33 ce3f 5d79 2b3e 420c ba3e
00000090: 5978 babf f628 b43f eeda 88be 5b92 ae3f
000000a0: b471 893f 0787 f63f a6a8 7b3e 04c5 8abf
000000b0: eb7e 1ebe bc1c 9e3c 6676 263e a3a9 6f3f
000000c0: ceca c3be 9b8c 543f 2850 b33d f533 3abf
000000d0: 2bb2 a23f 6796 9bbe d2d9 4cbe a724 0b40
000000e0: 50bc 9d3f 4fd9 76bd 5327 08be 6fe4 c53f
000000f0: a18d 0340 99d3 c73f d8b1 9fbe 0df6 5fbf
1.1604525 -1.0210034 0.055794757 -0.38116372 -0.60068786 1.2690638 0.16479233 0.6073169
0.25489503 -1.6340135 -0.119227394 2.3055773 -0.33828238 -0.1767865 -0.20633917 1.5311456
-0.02388482 0.9121027 0.10144269 0.69099134 -0.4772201 0.96426463 0.17354938 0.09195617
1.9394379 1.1901478 -0.31437793 -0.96934205 -0.42356962 0.59182 -0.08753294 -0.19469644
-0.77061874 1.610944 0.16745515 0.36337477 -1.4567977 1.4075 -0.2672953 1.3638414
1.0737824 1.9259957 0.24576053 -1.0841374 -0.15478103 0.019300811 0.16256103 0.9361822
-0.38240665 0.83027047 0.08755523 -0.7273553 1.2710623 -0.30388185 -0.20004967 2.174112
1.2323093 -0.060265835 -0.13296251 1.5460337 2.0555193 1.561145 -0.31190372 -0.8748482

l2.bias f4 [8]
00000000: 9a70 0b3f d499 633f 20ef 023b 3dde e03e
00000010: 8da0 8abd df2b b53e 4869 163f f0cf 2a3d
0.5446869 0.889066 0.0019978955 0.43919554 -0.06768904 0.35385033 0.58754396 0.04170221

l3.weight f4 [19, 8]
00000000: d794 b43d 0c8e f23e aba2 35bf 97bb 86bd
00000010: f8d8 0dc0 79c6 eb3e e0e4 5b3f a561 88bf
00000020: d911 1ac0 b750 eabf fa29 1fbf 5a25 ce3e
00000030: 2632 11c0 c328 8a3e 94d4 423f fe86 af3d
00000040: 63b8 20c0 e285 3c3f 1a3d 8cbf 55ed 77bf
00000050: 8f58 03c0 7d17 13c0 e75c 353e a9ef bf3e
00000060: 5d10 25c0 654e 7b3e 4ab4 013f fce8 a2bf
00000070: 2222 75bf 1fb2 8ebe d14c f13e ac4e c6bd
00000080: 683e 12c0 dc9b 4f3e 798e 95be 1517 c3bf
00000090: 838a 833e dc29 3cbd df94 803f 1662 c7bf
000000a0: 4971 313f 6640 79bf a008 f8be be7c 2b3f
000000b0: d98f 02be 4347 f93e 3ee8 9a3d b2ad 9ebf
000000c0: e0d8 02be 4d6a 19c0 9491 a2bd 1766 083f
000000d0: 4b76 223f 4651 ca3e ecec 89bf ab3e 5dbe
000000e0: 7f0e 0abe bfc5 b0bf d03e b7be 8f22 07bd
000000f0: 5bdf 58be 4321 95be 6d26 623e aa91 5e3e
00000100: e7e9 3cbf 01e1 4ebf c9a4 ba3e 7cb2 08be
00000110: 2320 4f3f c0c4 a63e 37bb ba3e d9ad 0cc0
00000120: b0ab 013e cc9f a83e 71a7 bcbe f7d0 b5bf
00000130: 1ce8 423f 134e 0abf 3e81 bb3e 94ab f6bf
00000140: 0fbb 563f a63c 673e a12b 0cbf fe63 0d3f
00000150: eff7 91bf 15ae 1cbe c44a 2bbf d02e 9fbe
00000160: f5e5 1e3c 2bd3 fdbf 827c fb3e 631b 1f3f
00000170: 91c4 2ec0 d1d4 f53d 1d72 41bf 0f5d ae3e
00000180: 2dbe 1abe 0bd0 8abf 4ec3 663e 3f1c 083f
00000190: c3b0 153d eeb5 823d 04c9 23c0 c5e8 903e
000001a0: 92eb 953e b472 61bf 5e5f 36be c81c e9be
000001b0: 412f bdbf 3db8 f0bf 1818 b8be 7bb3 333f
000001c0: 0801 383f 42ab 4ebc 0c10 3b3e 1081 d83e
000001d0: 709a 09c0 57c1 67bf 796a 51c0 fa48 843e
000001e0: 17c3 163f 0116 03bd 4efa e63d 8a1c 9ebe
000001f0: e51a 3b3f 39fb d6bf c230 f5bf 011d 413c
00000200: 4163 11bf 969b 773f 6bf0 a73e 3bd3 9bbf
00000210: a6f2 0fbf 8dcb 4dc0 5d28 4abf ef27 f73d
00000220: 7f3d f1bd 4b25 db3d 535c ba3d dc3d ddbe
00000230: 26c7 423e a934 80be ace8 40bb 29e9 13bf
00000240: f006 b43e 1a9b e13e 3747 db3e 8110 e6bf
00000250: 0161 183f 5ffe 09c0 b7fb 94be 4075 28bf
0.088174514 0.47373998 -0.70951337 -0.06578749 -2.2163677 0.4604986 0.8589611 -1.0654799
-2.4073393 -1.8305882 -0.62173426 0.40262872 -2.2686858 0.26984224 0.7610562 0.085706696
-2.511254 0.7364179 -1.0956147 -0.96846515 -2.0522802 -2.2983086 0.1771122 0.37487534
-2.5791237 0.24541624 0.50665724 -1.2727351 -0.9575521 -0.2787027 0.4712892 -0.09682974
-2.285059 0.202743 -0.2921026 -1.5241419 0.25691614 -0.045938358 1.0045432 -1.5576808
0.69313484 -0.9736389 -0.4844408 0.66987216 -0.12750186 0.4868718 0.07563828 -1.2396758
-0.12778044 -2.397113 -0.07937923 0.53280777 0.6346175 0.39515132 -1.0775428 -0.21605937
-0.13482092 -1.3810347 -0.3579011 -0.032991942 -0.21178953 -0.2912694 0.22084971 0.21735254
-0.73794407 -0.8081208 0.36453846 -0.13349336 0.8090841 0.32571983 0.3647096 -2.1981108
0.1266315 0.32934415 -0.36846498 -1.4204396 0.7613542 -0.5402538 0.3662204 -1.9271111
0.8387918 0.2258173 -0.5475407 0.552307 -1.1403788 -0.15300782 -0.6691096 -0.31090403
0.009698381 -1.9830068 0.4911843 0.62151164 -2.7307475 0.12003482 -0.7556475 0.34055373
-0.15111609 -1.084474 0.2253544 0.531681 0.036545526 0.063823566 -2.559144 0.2830259
0.29281288 -0.8806565 -0.17809817 -0.4552977 -1.4780046 -1.8806225 -0.35955882 0.7019574
0.71876574 -0.012614073 0.1826784 0.42285967 -2.150051 -0.9052939 -3.2721236 0.25836927
0.58891433 -0.032003406 0.112782106 -0.3088115 0.7308791 -1.6795417 -1.9155505 0.0117867
-0.56792074 0.9672178 0.32800612 -1.2173837 -0.5622963 -3.2155488 -0.7896784 0.120681636
-0.117793076 0.107004724 0.09099641 -0.43211257 0.19021282 -0.25040177 -0.0029435558 -0.5777765
0.35161543 0.44063646 0.4282777 -1.7973787 0.59523016 -2.1561506 -0.29098293 -0.6580391

l3.bias f4 [19]
00000000: d58d 19bd 18e7 703e f871 023f 2a5a 17be
00000010: 21ef 693d f901 dd3c e751 0ebe a0ce 3fbe
00000020: dadb 5dbe 8908 a1be d8cd d43e a446 1a3e
00000030: d486 89be c117 693d 5198 92be 3cb6 c7be
00000040: 9683 b63e bd08 09bd 8444 cfbd
-0.037488777 0.23525655 0.5095515 -0.14780489 0.057112817 0.02697848 -0.13898431 -0.18731165
-0.21665898 -0.31451824 0.41563296 0.1506601 -0.26860678 0.05690742 -0.28631833 -0.3900622
0.35647267 -0.0334556 -0.1012049
